static/trained_model/model_scripted.pt (torch, 209864 bytes, 4 tensors)

weight f4 [128, 384]
0.03425211 -0.010162046 0.02055908 0.028018579 -0.016909558 0.039401792 0.042848855 0.008099546
-0.0118146045 0.0059187496 -0.019875295 -0.020220147 -0.0023884047 -0.017794706 0.026062177 0.018738786
-0.0052538454 -0.023210388 0.031358987 -0.004167331 -0.055892672 -0.0244599 -0.008589215 0.030668668
-0.01296043 0.0278228 -0.01721849 -0.015706267 -0.03252954 0.005878147 0.029138818 0.047639925
-0.027765935 -0.008702368 -0.009272773 -0.0057448805 0.046407476 0.02231087 -0.019656472 0.0410817
-0.02799386 0.0036159928 0.011065684 -0.01569141 -0.009515315 -0.019246083 0.041482788 0.05295981
-0.0032996424 0.05532069 0.0035593512 0.04806467 -0.015574706 -0.0018627712 -0.04042688 -0.02111336
0.0025162736 0.010861118 -0.057383336 -0.0028110207 -0.03522926 -0.030049475 -0.050607666 -0.018947944
-0.03211576 0.018294616 0.009266002 -0.030159764 -0.025893679 -0.05140384 -0.023641128 0.031251583
0.015459779 0.018057168 0.056549586 0.026863368 -0.0022807885 -0.020728592 0.028429579 -0.029294092
-0.028997393 -0.026715327 0.030753395 -0.016693125 0.0036210695 -0.036248565 0.025322774 -0.0058174604
-0.022412254 -0.056603085 0.006427229 -0.014128728 0.019002162 0.04792813 -0.04731806 0.026914608
-0.006247275 0.04346518 0.025987308 -0.0042723548 -0.052584123 0.035622068 -0.0033684743 0.018765206
0.046058625 -0.006771941 -0.04014327 0.05416973 -0.016919607 -0.05465343 -0.032403704 0.001629396
-0.012942531 0.032717288 0.018719133 -0.009556585 0.03707381 0.039792303 -0.004233928 -0.038641218
0.009355449 -0.02151124 0.0066652303 0.008683562 0.00931785 0.046628498 0.0022834474 -0.014954186
-0.020275636 0.02426644 -0.010625907 -0.03969543 -0.013345653 0.011677106 -0.036543634 -0.0042775297
0.004596646 0.035592962 0.051315125 -0.023331078 -0.004837455 -0.039351866 -0.021374613 0.025194148
-0.031710148 -0.0193616 -0.025881726 -0.02776924 -0.036375996 0.010442399 0.026375832 0.03584635
0.010639609 0.023076374 -0.0035465504 -0.015501036 0.05645775 0.02702634 -0.050061345 -0.017431557
0.009184339 -0.012902984 0.020533271 -0.053710643 0.018928295 -0.0018940554 -0.032177553 -0.027846018
0.057423715 0.00058838 -0.029570041 0.012618309 -0.025752747 -0.054716643 -0.012207252 -0.018560017
-0.05232459 0.04271345 -0.024071388 0.042304102 0.026262935 0.023868646 -0.023855552 -0.02221479
0.001974853 0.0312984 0.03625167 0.031183273 0.017194891 0.03153681 -0.009567478 -0.039669886
0.052453857 -0.022374071 -0.04031666 0.029468914 0.026651228 -0.026718391 0.006595171 0.039063543
0.009292219 0.042218205 0.010339868 -0.013968258 0.03084716 -0.053256825 -0.010236966 -0.02059544
-0.014681259 -0.05550638 0.038087826 -0.03558796 -0.0442087 -0.053208087 0.008333414 0.013932701
0.04696064 0.021440322 0.040223446 -0.042511187 0.042886388 -0.039793365 -0.037191067 0.015319779
-0.0068595274 -0.016068785 0.016316634 0.026275154 -0.02268081 0.02807795 0.026394611 0.030156413
-0.040629905 -0.0330105 -0.03046058 0.018559039 -0.03025197 -0.02338597 0.008060515 0.010734888
0.017652016 0.0068391077 0.02150913 0.003958976 0.023137685 0.020823596 0.023534367 -0.025667142
0.031218378 -0.043415945 -0.041592624 0.04237081 0.033942677 -0.038482588 0.039367016 -0.049544528
00000000: f14b 0c3d b67e 26bc 846b a83c 3887 e53c
00000010: ea85 8abc c663 213d 4882 2f3d f5b3 043c
00000020: 0b92 41bc 12f2 c13b 84d1 a2bc b9a4 a5bc
00000030: c886 1cbb 34c6 91bc 5980 d53c 1582 993c
00000040: 7328 acbb b623 bebc 4872 003d 1b8e 88bb
00000050: b7ef 64bd 2160 c8bc c7b9 0cbc dc3c fb3c
00000060: fc57 54bc a4ec e33c ca0d 8dbc 6eaa 80bc
00000070: b23d 05bd 799d c03b 88b4 ee3c 1522 433d
00000080: 6375 e3bc 6094 0ebc d4ec 17bc 8d3f bcbb
00000090: c415 3e3d 49c5 b63c 9c06 a1bc 4945 283d
000000a0: 6153 e5bc 4bfa 6c3b d84c 353c 468b 80bc
000000b0: 20e6 1bbc f6a9 9dbc dbe9 293d 63ec 583d
000000c0: d03e 58bb f397 623d 0144 693b 76df 443d
000000d0: 0d2d 7fbc 3b28 f4ba a896 25bd edf5 acbc
000000e0: 11e8 243b d5f2 313c ca0a 6bbd 1a39 38bb
000000f0: 8e4c 10bd 512a f6bc fc49 4fbd b838 9bbc
00000100: d18b 03bd 97de 953c 6ed0 173c 9c11 f7bc
00000110: fb1e d4bc d58c 52bd 0aab c1bc a901 003d
00000120: 034b 7d3c a0ec 933c 8aa0 673d 9110 dc3c
00000130: 4879 15bb 02cf a9bc 26e5 e83c 2afa efbc
00000140: f18b edbc 1ada dabc 8bee fb3c 05c0 88bc
00000150: 774f 6d3b 6079 14bd b571 cf3c 65a0 bebb
00000160: e799 b7bc a3d8 67bd 819b d23b 2e7c 67bc
00000170: 6caa 9b3c 4950 443d 95d0 41bd 067c dc3c
00000180: f1b5 ccbb 8b08 323d 56e3 d43c 1cff 8bbb
00000190: 7362 57bd 72e8 113d 9fc1 5cbb 7db9 993c
000001a0: f8a7 3c3d 29e7 ddbb 456d 24bd 14e1 5d3d
000001b0: fd9a 8abc 46dc 5fbd bfb9 04bd 7591 d53a
000001c0: e90c 54bc 9002 063d de58 993c 3993 1cbc
000001d0: b5da 173d 41fd 223d c3bc 8abb 4146 1ebd
000001e0: 9947 193c 5738 b0bc 0168 da3b 8045 0e3c
000001f0: e5a9 183c 86fd 3e3d e4a5 153b 6702 75bc
00000200: 1719 a6bc 6aca c63c 4918 2ebc ad97 22bd
00000210: baa7 5abc 5551 3f3c c7ae 15bd 852a 8cbb
00000220: 769f 963b edc9 113d cf2f 523d d120 bfbc
00000230: 8483 9ebb 6c2f 21bd d019 afbc f563 ce3c
00000240: 80e2 01bd 389c 9ebc ea05 d4bc 517c e3bc
00000250: fffe 14bd 9916 2b3c 2112 d83c 9fd3 123d
00000260: c151 2e3c aa0a bd3c 3e6d 68bb 0ff8 7dbc
00000270: 3e40 673d 5866 dd3c 200d 4dbd a0cc 8ebc
00000280: e979 163c 0a67 53bc 6435 a83c b1ff 5bbd
00000290: 830f 9b3c f441 f8ba 9ccc 03bd 551d e4bc
000002a0: 2135 6b3d 833d 1a3a df3c f2bc 06bd 4e3c
000002b0: 6df7 d2bc 8f1e 60bd ed00 48bc 2d0b 98bc
000002c0: 4f52 56bd 4cf4 2e3d 5c31 c5bc 1147 2d3d
000002d0: 5e25 d73c 2e88 c33c b86c c3bc cbfb b5bc
000002e0: 896c 013b c032 003d a27c 143d 1074 ff3c
000002f0: 4ddc 8c3c be2c 013d e9c0 1cbc e47c 22bd
00000300: dbd9 563d d449 b7bc 1523 25bd cb68 f13c
00000310: ad53 da3c 87e0 dabc 4e1c d83b 1801 203d
00000320: 643e 183c ffec 2c3d 8d68 293c 1fdb 64bc
00000330: 2fb3 fc3c d423 5abd f3b8 27bc c5b7 a8bc
00000340: aa89 70bc a85a 63bd fb01 1c3d aec4 11bd
00000350: 2f14 35bd b9f0 59bd df88 083c fc45 643c
00000360: cd59 403d 9da3 af3c 57c1 243d 3620 2ebd
00000370: a3a9 2f3d 5efe 22bd a955 18bd cfff 7a3c
00000380: e3c5 e0bb afa2 83bc 76aa 853c fe3e d73c
00000390: 1bcd b9bc bb03 e63c 8339 d83c 950a f73c
000003a0: 8b6b 26bd 0536 07bd 7788 f9bc 2009 983c
000003b0: fbd2 f7bc ef93 bfbc 4010 043c 62e1 2f3c
000003c0: f69a 903c 981a e03b ea33 b03c 4cba 813b
000003d0: 3e8b bd3c 3f96 aa3c 25cb c03c e643 d2bc
000003e0: afbd ff3c ebd4 31bd 075d 2abd 048d 2d3d
000003f0: 7a07 0b3d eb9f 1dbd 4f3f 213d 34ef 4abd

bias f4 [128]
-0.056142326 0.009127624 0.016589466 0.010281397 -0.075756416 -0.02100944 0.041646957 -0.055644274
0.0076916288 0.06372075 0.009195889 0.018385764 0.027907657 0.040229473 0.078994475 0.09228493
0.07975371 0.034432337 0.08084997 0.034401737 -0.024845991 0.079278596 -0.0032204788 -0.035096284
0.0051553277 0.061341554 0.009751726 0.03552955 0.019599676 0.0028794575 -0.058289465 0.07638772
0.04835172 -0.04598143 0.035474 0.099838495 0.0055950535 0.04452122 0.02704852 0.058811214
-0.060088232 -0.059318136 0.034282595 -0.01912998 0.1178592 -0.027931072 0.09470374 0.12325062
0.078439504 0.048446916 0.04776525 0.12360455 0.14987321 0.06449933 0.1195796 -0.013789826
0.014617182 -0.0065802517 0.101643756 0.019039376 0.08981121 0.04632252 0.022162212 0.10498346
0.08046133 0.019551273 0.080111004 0.05760132 0.16970748 0.078206845 0.110971026 0.12699549
0.05688806 0.07229366 0.041408677 0.13586068 0.10904339 -0.0013580571 -0.049836136 0.008385649
0.08960036 0.086520866 0.09532719 -0.00072367914 0.025806587 0.029508699 0.124582455 -0.03663332
-0.01856841 0.02278004 0.068544455 0.07427175 0.015008386 -0.0052920813 0.0837509 -0.0075974492
0.14102513 0.022991054 0.003613009 0.050206643 0.09574829 0.056288604 0.051390626 -0.038009245
0.08992846 0.06315413 0.10899321 0.10420931 0.004538708 0.020344157 0.07214423 -0.051999167
0.0012413482 -0.014611198 -0.030622035 0.12114193 0.016010866 0.05829946 0.050643716 -0.053118203
-0.04008028 0.018197285 -0.07140217 0.137739 0.053974226 0.0176185 0.08011885 0.087569654
00000000: 7ff5 65bd 088c 153c a2e6 873c 4e73 283c
00000010: 2e26 9bbd fd1b acbc 0096 2a3d 40eb 63bd
00000020: 0f0a fc3b 0680 823d 5baa 163c be9d 963c
00000030: 999e e43c a9c7 243d dbc7 a13d e2ff bc3d
00000040: ea55 a33d ec08 0d3d ab94 a53d d6e8 0c3d
00000050: d289 cbbc d15c a23d ab0e 53bb 1fc1 0fbd
00000060: 06ee a83b 4841 7b3d b4c5 1f3c 6f87 113d
00000070: 808f a03c 48b5 3c3b efc0 6ebd 2a71 9c3d
00000080: 740c 463d 0657 3cbd 2f4d 113d 2078 cc3d
00000090: b656 b73b e25b 363d dc94 dd3c 07e4 703d
000000a0: 141f 76bd 93f7 72bd e86b 0c3d 7ab6 9cbc
000000b0: 2a60 f13d b4cf e4bc 09f4 c13d d26a fc3d
000000c0: e4a4 a03d 4670 463d 7fa5 433d 6224 fd3d
000000d0: 5d78 193e 3a18 843d 26e6 f43d b9ee 61bc
000000e0: e87c 6f3c 279f d7bb 9a2a d03d 77f8 9b3c
000000f0: f1ee b73d afbc 3d3d 878d b53c 9101 d73d
00000100: e9c8 a43d fe29 a03c 3d11 a43d 5def 6b3d
00000110: ccc7 2d3e e92a a03d c744 e33d 1b0b 023e
00000120: 7403 693d b30e 943d 259c 293d 101f 0b3e
00000130: 2452 df3d d600 b2ba fa20 4cbd f663 093c
00000140: 6580 b73d da31 b13d e73a c33d 49b5 3dba
00000150: 5668 d33c 3abc f13c 1625 ff3d d20c 16bd
00000160: c71c 98bc 359d ba3c 0961 8c3d ca1b 983d
00000170: bce5 753c 3269 adbb 9885 ab3d 06f4 f8bb
00000180: e468 103e bc57 bc3c 3bc8 6c3b 7ba5 4d3d
00000190: ae17 c43d e18e 663d fa7e 523d 95af 1bbd
000001a0: 6a2c b83d f456 813d d537 df3d b16b d53d
000001b0: 71b9 943b caa8 a63c 5bc0 933d 14fd 54bd
000001c0: bcb4 a23a ce63 6fbc 10db fabc 4319 f83d
000001d0: 3829 833c 6acb 6e3d c96f 4f3d 7992 59bd
000001e0: 382b 24bd 7912 953c 4d3b 92bd 740b 0d3e
000001f0: 1414 5d3d ac54 903c 5a15 a43d b857 b33d

weight f4 [14, 128]
0.078915775 -0.061059725 -0.1329891 -0.13736965 -0.15846944 -1.1845229 -0.72384703 -1.1629604
-0.1009042 -0.28682825 -0.18513751 -1.1037284 -0.24448809 -0.03619512 -0.092797026 -0.02438065
0.019702865 -0.07204497 -0.08429279 -0.23802838 -0.25265378 -0.057592582 -0.19841343 -0.18823524
-2.3286574 -0.2244464 -0.2635411 -0.32261473 0.31034005 -0.42721197 -0.7732027 -0.13395357
-0.035080895 -0.0007492731 -0.1522987 -0.07263579 -0.18441832 -0.2712095 -0.18951674 -0.32615182
0.029047519 -1.5284791 -0.18176399 -0.16553096 -1.073526 -0.1797251 -1.4767706 0.14701623
-0.04276514 -0.40365717 -0.024695685 -0.01676859 -0.319113 -0.20473702 -0.69696015 -0.23427431
-0.040706474 -0.7123969 -0.07848189 -0.6713203 0.12025158 -0.11299769 -0.5434746 -0.0068263
-0.11404435 -0.09413624 -0.024779316 -0.22995847 0.020252952 0.06911526 -0.10654817 0.2455195
-0.34443745 -0.19998936 -0.15605924 0.08505996 -0.21667108 -0.3774069 0.0708612 0.02299593
-0.077290125 0.12698713 -0.0017873826 -0.2092105 -0.15284313 -0.029800102 -0.18712161 -0.3281722
-1.0896066 -0.49832046 0.077093676 -0.21705885 -0.53941035 -0.51956993 0.20621805 -0.2764026
0.053275835 0.04628806 -0.08602418 0.041923665 -0.18114874 0.10030438 -0.12115533 -0.17921756
-0.009015169 -0.12786953 -0.037310127 -0.04882532 -0.30075577 -0.036423597 -0.095375724 -0.25774077
-0.08867808 -0.21267557 -0.6189758 -0.079408064 -0.65768486 -0.06721209 -0.36913133 -0.30081388
-0.18986112 -0.43252355 -0.1992402 0.0889588 -0.37593362 -1.9853318 0.23196125 0.13582398
0.011209085 -0.11534365 -0.20720981 -0.14404029 -0.1806485 -0.8288623 -0.0009604959 -0.893271
-0.045344304 0.036643073 -0.19458456 -2.4901528 -0.16777046 -0.05320221 -0.7317108 -0.18766038
-0.32340515 -1.8776925 -0.08538184 -0.1759682 -0.212436 -0.3763225 -0.106247514 -0.2334859
-1.8849655 -0.06774154 -0.22486696 -0.37441912 0.15849827 -0.1470014 -0.111259885 -0.13707894
-0.18729323 -0.016774999 -0.06024009 -0.16250789 0.1016421 0.0045470637 0.25024104 -1.0239989
-0.08676765 -0.7380414 -0.054560825 -0.17883676 -1.0072607 -0.057311323 -0.2760415 -0.22788598
-0.19403063 -0.09688464 -0.116539314 -0.2930355 0.18144803 -0.031833757 -0.38048857 -0.11742057
-0.20546342 -0.5118287 -0.22927597 -0.63176876 -0.23850112 0.20487274 0.12192932 -0.18834716
-0.6930319 -0.187776 -0.14290574 -0.07157425 -0.30586168 -0.17453937 -0.85890406 -0.23624294
-0.11417412 -0.19439085 -0.06923433 0.014242981 -0.97684646 -0.05841762 0.041150734 -0.04839316
-0.16661258 -0.81750995 -1.0446548 -0.03161206 -0.18285112 0.0058046244 0.08812377 -0.17485397
-0.84110075 0.10099375 -0.49936005 -0.11122076 -0.12023219 -0.4100712 0.23658453 0.009197695
-0.26697144 -0.2014546 -0.090873085 0.024673088 -0.13992909 -0.35530683 -0.10495946 -0.13287005
-0.12494238 -0.0734576 -0.18795133 -0.023353525 -0.09248792 -0.21480969 -0.12673002 -0.12629049
-0.10135464 0.005358698 -0.12129345 -0.02569034 -0.94333035 -0.5418977 -0.051761657 -0.03706963
-0.10195353 0.22630703 -0.29115105 -0.40310904 -0.1972598 -1.9472843 0.1916606 0.004191691
00000000: 989e a13d c319 7abd 4b2e 08be a1aa 0cbe
00000010: d045 22be 729e 97bf 0a4e 39bf e3db 94bf
00000020: dca6 cebd 27db 92be b094 3dbe f946 8dbf
00000030: 165b 7abe 5641 14bd 5e0c bebd eeb9 c7bc
00000040: e767 a13c 508c 93bd b3a1 acbd b6bd 73be
00000050: d65b 81be 33e6 6bbd e42c 4bbe bdc0 40be
00000060: b908 15c0 47d5 65be dcee 86be c22d a5be
00000070: e4e4 9e3e 87bb dabe 9df0 45bf 202b 09be
00000080: fcb0 0fbd de6a 44ba 31f4 1bbe 13c2 94bd
00000090: 28d8 3cbe f9db 8abe ad10 42be 5ffd a6be
000000a0: 10f5 ed3c 34a5 c3bf 5720 3abe f380 29be
000000b0: 4d69 89bf db09 38be d206 bdbf 6c8b 163e
000000c0: 802a 2fbd 27ac cebe 9b4e cabc 485e 89bc
000000d0: c762 a3be 95a6 51be fb6b 32bf 9be5 6fbe
000000e0: d5bb 26bd a55f 36bf 1dbb a0bd a6db 2bbf
000000f0: 7646 f63d 556b e7bd 2721 0bbf 28af dfbb
00000100: 1690 e9bd 80ca c0bd fefd cabc 3c7a 6bbe
00000110: 85e9 a53c 4d8c 8d3d ed35 dabd 7769 7b3e
00000120: 1b5a b0be 03ca 4cbe fecd 1fbe eb33 ae3d
00000130: 06df 5dbe 7a3b c1be ad1f 913d f661 bc3c
00000140: 494a 9ebd ea08 023e 9c46 eaba 473b 56be
00000150: e982 1cbe 581f f4bc cf9c 3fbe 3006 a8be
00000160: 3b78 8bbf dc23 ffbe 4ae3 9d3d ad44 5ebe
00000170: cc16 0abf 8902 05bf d32a 533e a484 8dbe
00000180: c337 5a3d 8c98 3d3d 722d b0bd 26b8 2b3d
00000190: 0e7f 39be 626c cd3d 4920 f8bd cf84 37be
000001a0: 5cb4 13bc 3bf0 02be 81d2 18bd 0ffd 47bd
000001b0: a9fc 99be e930 15bd 5954 c3bd 99f6 83be
000001c0: da9c b5bd a0c7 59be 3375 1ebf b2a0 a2bd
000001d0: 095e 28bf 7ea6 89bd c8fe bcbe 4704 9abe
000001e0: f46a 42be ba73 ddbe 9f05 4cbe 0830 b63d
000001f0: 5f7a c0be 5a1f febf 4087 6d3e 7115 0b3e
00000200: 4fa6 373c 4b39 ecbd cf2e 54be 4c7f 13be
00000210: ecfb 38be 5230 54bf cac9 7bba 69ad 64bf
00000220: f3ba 39bd 0c17 163d 2d41 47be aa5e 1fc0
00000230: 05cc 2bbe 90ea 59bd 6651 3bbf 0b2a 40be
00000240: 5c95 a5be 3a58 f0bf addc aebd 0231 34be
00000250: d388 59be 58ad c0be 4c98 d9bd ee16 6fbe
00000260: 8d46 f1bf 14bc 8abd 8643 66be ddb3 bfbe
00000270: 5f4d 223e 8987 16be 39dc e3bd 6c5e 0cbe
00000280: ccc9 3fbe b96b 89bc 50be 76bd 7868 26be
00000290: bc29 d03d 89ff 943b 981f 803e 6512 83bf
000002a0: 3db3 b1bd 48f0 3cbf 2c7b 5fbd fc20 37be
000002b0: ebed 80bf 47bf 6abd 5055 8dbe f15a 69be
000002c0: f7af 46be 746b c6bd 2aac eebd c008 96be
000002d0: 83cd 393e 1d64 02bd 66cf c2be 327a f0bd
000002e0: 0165 52be 3507 03bf 52c7 6abe 99bb 21bf
000002f0: a339 74be 29ca 513e 14b6 f93d 14de 40be
00000300: 8a6a 31bf 5a48 40be e255 12be 8595 92bd
00000310: e799 9cbe 73ba 32be 23e1 5bbf abe9 71be
00000320: 1fd4 e9bd 650e 47be baca 8dbd 645b 693c
00000330: 9c12 7abf 5047 6fbd ac8d 283d e837 46bd
00000340: 7d9c 2abe 5548 51bf 40b7 85bf a67b 01bd
00000350: 533d 3bbe b834 be3b 3c7a b43d eb0c 33be
00000360: 6152 57bf d0d5 ce3d 1fac ffbe b6c7 e3bd
00000370: 4b3c f6bd daf4 d1be 3743 723e eeb1 163c
00000380: 7bb0 88be 1d4a 4ebe ab1b babd 371f ca3c
00000390: 9249 0fbe c7ea b5be fcf4 d6bd 160f 08be
000003a0: cae1 ffbd f070 96bd 5076 40be e44f bfbc
000003b0: 4e6a bdbd 12f7 5bbe 84c5 01be 4b52 01be
000003c0: 0693 cfbd 0498 af3b b368 f8bd 8c74 d2bc
000003d0: 197e 71bf cfb9 0abf 0804 54bd 53d6 17bd
000003e0: 03cd d0bd 08bd 673e c011 95be 4f64 cebe
000003f0: 79fe 49be 9d40 f9bf ad42 443e 745a 893b

bias f4 [14]
-0.037490137 0.00028388735 0.08504928 -0.04587752 -0.12058695 0.060065817 0.04959762 -0.0027889272
0.1169757 0.07736957 -0.0056888964 0.06819523 -0.003562696 0.07136409
00000000: 428f 19bd b7d6 9439 512e ae3d 11ea 3bbd
00000010: 4af6 f6bd 9307 763d e026 4b3d 6fc6 36bb
00000020: f590 ef3d f073 9e3d ec69 babb f1a9 8b3d
00000030: 1f7c 69bb 5627 923d
