static/trained_model/multi_input_classifier.pt (torch, 407830 bytes, 6 tensors)

weight f4 [128, 384]
00000000: 3fdf 98bb cc74 1abd 20a5 c73d d0d8 a23e
00000010: 29e8 bb3c 4682 51bd a8a0 32be 0d1e 663d
00000020: d2bc 2dbe 3e09 633d bb7e 903e 4b5c a3be
00000030: 3023 463e f371 273e 98f2 6abe 98e9 e2bd
00000040: 5e55 4ebe b16f 01be 2749 f2ba 5d49 03be
00000050: fa63 983d c63c 1bbd bc6e 2abe e959 cd3d
00000060: 1f8b 20be 7b46 e6bc d427 82be 4155 843e
00000070: c3a9 2abe 1d10 573e 80d3 15be 9211 653e
00000080: 536c c3bd e59d 14be 9bb5 cfbd 6a5c 133c
00000090: a2e1 8fbd 4b68 88be 1e87 273e e841 5fbc
000000a0: 852f d0bd 3776 dcbe 11ab d5bd 0a84 f7bd
000000b0: de27 12be 944c cd3d ef59 743e 2cd8 2ebe
000000c0: bb07 2c3c ee8a 233d b7f9 9abd debb efbd
000000d0: 761e 07be 0c9d 4e3c da45 cdbc 0376 98bd
000000e0: c0b4 55be a2e0 8ebd 5926 e03c e773 0abd
000000f0: 8eed 99be 4c1a 37be 9de5 37bc 6948 733d
00000100: 0718 3c3d bd04 dabd 30d3 943e c228 85be
00000110: 01f7 873e ee4e 2e3e 9ed6 67bd 69ea 483e
00000120: 2e0d e4bd 4674 bbbc 4620 59bd 0c30 543e
00000130: 01f4 403d 380d 053e 55ee 283c c830 55be
00000140: 237f 4fbd a88e fe3c e14d cb3d 7ff3 953e
00000150: eaa1 813d 6775 51bd fd41 39bd 4983 f63d
00000160: bc74 1f3d 8719 00be 57ca 5a3e ed45 9d3c
00000170: 15d3 09bd c38d c13d 74b9 e13d 40fc 5bbd
00000180: 1745 46be 71e5 abbc b58a bcbd 6f2f 19be
00000190: 5afb b93d aadb 97be a3af 673d 5f8c 103e
000001a0: c4eb 14bd 17a9 2a3d 3237 2a3d 422a 14be
000001b0: 1730 3fbc d388 09bc d60b c03c 73ec 2fbe
000001c0: 233a 893e 7fd8 8fbd 4cc6 76bd 88af df3d
000001d0: c7c2 0c3d 69ef fcbd ef7d 5d3e 6ad3 2d3e
000001e0: 361a 61be ed7d 40be 5d27 62bd eec8 b1be
000001f0: e8df 2d3e a417 be3e 12ee 5a3e 973d afb7
00000200: 3259 a33d 576b a2bd 0255 ef3d 36ec 8f3e
00000210: 6343 453d f671 453e 6dfc 883e 44f7 f13d
00000220: 1ec9 163d afea 93bd 8a11 643d 1af5 96bd
00000230: 47d2 42be ce27 9dbe 53a0 86bd 74de 9f3d
00000240: 58e1 633e 5cf5 e93d f329 e1bd e329 2d3e
00000250: 1d5c fb3d 0f81 00be f651 f8bc 483a 81be
00000260: 2b5c c5bc ef8a d23d 97ee 8c3d 43a7 babc
00000270: 4054 2f3e cf31 943e 86c3 d03c 8d09 56be
00000280: c5c9 1a3d 2ff9 95bd 47f4 243e 73bf 69bc
00000290: 4b65 403d c077 813d 619a 81be 35de 0dbd
000002a0: 0104 3e3c 9408 4c3c ecfe abbd 3be6 5ebd
000002b0: 8999 e5bd b451 65be 994d 85be f92c 583e
000002c0: 1d53 81bc 924d 35be e1d9 4d3e 677c d73d
000002d0: b321 95bd 2395 6bbd 26a9 bd3d 7d08 f73d
000002e0: 628d 6ebc 7395 933d c8b7 b5ba b1c5 1a3e
000002f0: 979a 97bd b3fd 90bc ee9b 713e 73f4 5a3e
00000300: 623f 1f3e b816 eebd 9c9d 06be 83ea 853e
00000310: 9fe0 06bc 405d c23d 6385 c83c 7d2a 723d
00000320: 4d97 133e 6d34 77bc 4944 f63d 278f 223e
00000330: 286f f23d 188f e53d 3fcd fdbd 4dc7 4fbd
00000340: 1bce c1bd d2ff 1c3e cd9e d2bd bcf0 2bb9
00000350: 9c75 12bd 5d0d b2bd 2ea1 0dbe 529c 3c3e
00000360: 6234 a8bc 30ea 3bbe 7202 f3bc 26b2 d2bd
00000370: 07a6 14be b6a4 91be 6db5 f4bd b3b4 65bc
00000380: 4735 3fbd 92a0 7f3e 2ba9 493e 6cec 91ba
00000390: 60fb 45be 4fca 8d3d 3828 aa3c 55b3 2f3e
000003a0: 1f96 7c3d a9ac a4bd a259 9f3d 5ec8 4a3e
000003b0: d4f5 903d b85d ce3c bb64 9dbd 5934 2c3c
000003c0: 651c 86be 2385 41be 0984 63bd 9e43 e4bd
000003d0: 0a28 a93d 94f5 d8bd b8a7 c5bd 540d dbbc
000003e0: c78d e6bc 0d32 353e 8610 d5bd 7ef3 d13d
000003f0: 0f64 1f3d 9ff7 1a3e 3d43 e6bd 231a 4dbe
-0.004665285 -0.037709042 0.09748292 0.3180604 0.022937851 -0.05114963 -0.17444098 0.056181002
-0.1696656 0.055428736 0.28221688 -0.3190635 0.1934936 0.16352062 -0.22944105 -0.11079711
-0.20149752 -0.12640263 -0.0018484936 -0.12820955 0.07440944 -0.037899755 -0.16643804 0.100269146
-0.1567807 -0.02810978 -0.2542101 0.25846294 -0.16666321 0.2100224 -0.14631462 0.22369984
-0.095421456 -0.14513357 -0.1014206 0.008994201 -0.07025458 -0.2664207 0.16360137 -0.013626553
-0.10165314 -0.4305894 -0.10433019 -0.12085731 -0.1427302 0.10024372 0.23862432 -0.1707465
0.01049989 0.039927416 -0.075671606 -0.11705755 -0.13195214 0.012610685 -0.025057722 -0.07444384
-0.20869732 -0.06976439 0.027362036 -0.03380194 -0.30064052 -0.17881125 -0.011224178 0.059395228
0.04592135 -0.10645435 0.29067373 -0.26007658 0.26555637 0.17022297 -0.05660116 0.1962067
-0.11135326 -0.022882592 -0.053009294 0.20721453 0.0471077 0.12993324 0.010310729 -0.2081939
-0.050658356 0.031073883 0.099269636 0.29287335 0.06329711 -0.051137354 -0.045228947 0.120367594
0.038929686 -0.12509738 0.21366249 0.019198382 -0.03364857 0.09450867 0.110217005 -0.05370736
-0.19362293 -0.02098343 -0.09206144 -0.149595 0.09081145 -0.29659778 0.056563985 0.14116047
-0.036357656 0.041665163 0.041556545 -0.14469245 -0.01166918 -0.008394438 0.023443144 -0.17180042
0.26802167 -0.07023715 -0.060247704 0.10922152 0.03436544 -0.12350351 0.21630071 0.1697518
-0.21982655 -0.18798037 -0.05521332 -0.3472361 0.16979945 0.3712741 0.21379879 -2.0890306e-05
0.07975997 -0.0793063 0.11686136 0.28109902 0.048159968 0.19281754 0.26755086 0.1181474
0.036812894 -0.07222497 0.05568079 -0.07370968 -0.19025527 -0.3069443 -0.06573548 0.078061014
0.2225393 0.11423752 -0.10994329 0.1691051 0.122734286 -0.12549232 -0.03031252 -0.25239778
-0.0240918 0.10280406 0.06881445 -0.022784835 0.17121983 0.2894425 0.025483858 -0.20902081
0.03779008 -0.073229186 0.1610881 -0.014266836 0.0469716 0.063216686 -0.25313094 -0.03463574
0.011597634 0.012453217 -0.08398232 -0.054418784 -0.11210925 -0.22394449 -0.26035765 0.21110906
-0.015786702 -0.17705372 0.20102645 0.10521775 -0.07281818 -0.057515275 0.09260778 0.12062166
-0.0145600755 0.072062396 -0.0013863975 0.15114476 -0.074025325 -0.017699098 0.23594639 0.21382312
0.15551522 -0.11625427 -0.1314606 0.2615548 -0.008232265 0.09490442 0.024477666 0.05912255
0.14413185 -0.015088183 0.12024743 0.15874921 0.118376076 0.112089336 -0.12392663 -0.050727177
-0.094631396 0.15331963 -0.10284195 -0.00016397511 -0.035756692 -0.08693955 -0.13831016 0.18419006
-0.02053279 -0.18351054 -0.029664252 -0.10287885 -0.1451646 -0.28445977 -0.11948667 -0.014020133
-0.04668167 0.24963596 0.19693439 -0.0011133081 -0.19334173 0.06923353 0.02077113 0.17158253
0.061666604 -0.08040745 0.07780768 0.19802997 0.07078138 0.025191173 -0.076852284 0.0105105275
-0.26193538 -0.18898444 -0.05554584 -0.111457095 0.0825959 -0.10593715 -0.096511304 -0.026739754
-0.028143777 0.17694874 -0.10403542 0.102515206 0.038913783 0.15133522 -0.112432934 -0.20029502

bias f4 [128]
00000000: 46a9 653d 2f36 913d 2e57 4bbd a7c6 4f3d
00000010: a750 033d 1f56 613c 6507 de3c 1960 533d
00000020: fd26 de3c f868 5fbc 7065 883b 4dbb a03c
00000030: 5abb 80bc 288b 9f3d 88a5 dfbc 98ad c83c
00000040: c659 ac3d 9506 913d c22e 6ebd 7bbb 5c3b
00000050: 6333 dabc a80d a83d 8766 673d 1310 f33d
00000060: e6ac 163d 4bfd 853d 2f82 933d aef1 463d
00000070: 3495 233d 8405 333d f2b6 2a3d 8628 043d
00000080: 7c99 9f3d 49e1 6abc e2eb 813d b53c 053d
00000090: 623b 21bd e763 873d 4b1a 0e3d 66e8 1e3c
000000a0: f57e 903d 8dcf bcbc 5725 47bc 1d3b 4fbd
000000b0: c0c4 0c3d 060e 3039 2934 fe3b 117e 083d
000000c0: 775d c23d be55 5dbd 78ee c53d c97d 7e3c
000000d0: e15c 59bd 84c4 e53b 57c9 783c 78c0 c63d
000000e0: 0adb 2ebd dae8 493d f381 af3c c039 aa3b
000000f0: 823b 963d f8e4 a63d eceb 513c cc5b 973d
00000100: d8d3 683d 4309 953d 61fb 303d 305e 4abd
00000110: aa01 8f3c 60c0 323d 3868 3bbd bbd4 a03b
00000120: 906c 163d 8cb9 263d 3aad 15bd 516c fb3c
00000130: ac15 8c3d 4329 523d 70c0 693d 5566 793c
00000140: 1a22 f53c 25d8 a23d 1085 ddbc 4da2 34bd
00000150: a06a 38bd 0924 553d 8487 e63c aa73 e53d
00000160: 5aec 663d 546a d0bc ab82 18bc 294f 37bd
00000170: 7a20 ba3c cc08 a23d 10c3 3e3d 600c 863d
00000180: 65bf c63b 7839 433d b8a0 843c e7de ec3d
00000190: 27f6 393d e3a2 983c 9700 e43d 5825 32bd
000001a0: b644 5f3d ebf0 6fbd f489 b73c 95b4 5f3d
000001b0: 0eff 15bd 76c7 953d 2e60 003e 2036 2e3d
000001c0: 9e8e 43bd 6871 913b d565 db3c 4f6e 3dbd
000001d0: 052d 3c3d ee86 9c3d 7dd9 42bb 02b3 8a3b
000001e0: a559 c8bc c7eb 873d bb5c ac3d b6dd d63b
000001f0: a541 833d cccc c13c b150 373d ba9c f93d
0.056069635 0.07090413 -0.049643688 0.05072656 0.032059338 0.013753443 0.027103135 0.051605318
0.0271182 -0.013635866 0.004162483 0.019620562 -0.015714336 0.07790214 -0.027300611 0.024496838
0.084155604 0.070813335 -0.05815006 0.0033681083 -0.026635831 0.0820573 0.056494262 0.118683
0.036785983 0.065424524 0.07202565 0.048570327 0.039937213 0.043706432 0.041678376 0.03226521
0.07792947 -0.014335939 0.06343819 0.032528598 -0.039363272 0.06610852 0.034693044 0.009698963
0.07055465 -0.023048187 -0.012154899 -0.050593484 0.034367323 0.00016789892 0.007757683 0.03332335
0.09490483 -0.05403685 0.09664625 0.015532919 -0.05306709 0.007011952 0.015184722 0.09704679
-0.04268936 0.04929433 0.02142427 0.0051948726 0.07335569 0.08149141 0.012812596 0.07390556
0.056842655 0.07277157 0.043208484 -0.04940623 0.017456848 0.043640494 -0.045753688 0.004908172
0.036724627 0.040704295 -0.036542155 0.030691298 0.06840071 0.05130888 0.05706829 0.015222152
0.029923487 0.079513825 -0.027040988 -0.044100095 -0.04502356 0.05203632 0.02814079 0.11203702
0.056377746 -0.025441326 -0.009308497 -0.044753227 0.022720564 0.07911834 0.046572745 0.06545329
0.0060652965 0.04766223 0.016189918 0.11565953 0.045400765 0.018632358 0.11132925 -0.043492645
0.054508887 -0.058579367 0.022404648 0.054615576 -0.036620192 0.07313435 0.1253669 0.042532086
-0.047743432 0.004438568 0.026781956 -0.046247777 0.04594137 0.07642923 -0.0029731684 0.004232765
-0.024456808 0.06636768 0.084161244 0.0065571917 0.06409005 0.023657225 0.044754688 0.12188096

weight f4 [128, 384]
00000000: dca7 0c3e e675 ec3c 09b0 dfbd 62e8 1abd
00000010: 7453 a8bd 203f d5bc 6621 4cbd 3f41 f53c
00000020: 7e3e e63d 6490 843d c122 11be 0fda eebd
00000030: 25b7 c63d 9920 83bd f3f5 86bd c2d1 eb3d
00000040: cd42 0dbf 867f 273d cc50 97bb f01f d83d
00000050: 431b 9cbd 3660 fb3b 1285 0dbc 30f8 1a3d
00000060: 2bfd 323e cf8a a03c 5d53 da3d c0a4 14bd
00000070: 25d6 ccbd 5a9d b43d 76ef 9dbb 3485 92bd
00000080: 5989 0d3e 9dde b0be 43c3 ef3e fbb0 d2bc
00000090: 0806 b6bc 0762 63be 1f57 8cbb b6dd 56be
000000a0: 72b6 c43d 4bbc 9bbd 88b7 6c3c 46df d1bd
000000b0: 2776 803d b191 1a3e 3aad 9abd 0c48 293e
000000c0: 29b4 053c 4d3d f8bd 74a6 97bd 2a6f 383d
000000d0: cbb1 71bd c1ed 00bd 3fea 75be 6fcc bdbd
000000e0: 70e2 753d 02a8 5f3d 9a54 23be dfc9 253d
000000f0: 3c40 1a3e abc2 483d 477b 203e da4c a63d
00000100: 825c 25be f76b 6cbd a4b8 9d3d 54a3 d33d
00000110: fa53 f6bc fbf6 ba3d d679 3bbe c9d8 6fbd
00000120: 3a18 bcbd 5852 fdbd b203 babc e2f6 5f3d
00000130: c1c8 033e aca6 0a3d 2f6c 223e 8e6a 65be
00000140: fd39 7abd 4009 87bc 8a30 2d3e 53dc 50be
00000150: b3c1 b43d 0625 2d3e bd85 06be 4e6c d1bd
00000160: 0a67 e3bc d25a 05be 889a 783d 313b 17be
00000170: 6090 233e 4f51 3abe 4119 00be e4e6 1cbe
00000180: 37da 13be c5cf 5a3e 0f19 a13d b68d 1e3d
00000190: 0671 2dbc f244 1cbe 1ee0 373e 261a 34bd
000001a0: 06d9 54bd d99b 993d 425c e33d 3ff3 cc3b
000001b0: 8151 f3bd d1e5 01be f97d 8abd f9ee 1abe
000001c0: 6ed2 183d 016a 18be 78fe 323e 06d5 813d
000001d0: 4384 b1bc 1a0d debc f3bc 16bc f5cf c2bd
000001e0: 5f15 4dbe 2129 1cbe d4da 4bbd 64d0 f43d
000001f0: 861e 993c d6fa fe3c 70b1 903b 2587 46bd
00000200: 583d 313e 43c7 26bc cb8f 73be a93b fc3d
00000210: 99ee be3c 3f42 dd3d f25a 9a3e ff66 373d
00000220: d5a0 e73d af6b 02be e4ac 9abc d0f3 a2bd
00000230: 407c 1d3e b2db 16bd 7a4b aebc cbe4 abbc
00000240: 4e67 f4bd 9a10 0fbe e494 e13d 3a24 0bbe
00000250: 701d 303e cf3b 91bd 28d1 073c a1e3 8f3d
00000260: aec1 84be ef6a 1abd 5987 38be c924 afbd
00000270: 17de 4b3d 4d99 3bbe 77b7 49bb 4173 603e
00000280: b66e 1abd 6192 8dbe 2c34 54bc fb48 e23d
00000290: d59d 1bbd d877 3c3d 743c dd3c 608a 07bd
000002a0: 9b5f 4bbe b682 393d b5b5 22be cb5b febd
000002b0: 5848 0c3e a858 e2bd 8d3d febd 6642 ff3d
000002c0: 5539 393e 742c 85be 9d4a 4bbe ea05 cd3d
000002d0: 7f38 d23d 7d66 7bbe 24c5 29bb 323a d23d
000002e0: 5ef0 213d e655 c03d b332 2abd c908 18bc
000002f0: c499 07be 7f2a 4fbe 917d 7b3e 5b81 8ebd
00000300: 0c46 083d 7080 2d3d b282 543d a03d 8dbd
00000310: 63d5 a7bc a0dc 523e d934 433e f21b 103e
00000320: c699 1abe 44de 5f3b 6aa5 633d 3369 cfbd
00000330: e612 e0bd b967 37be 6318 a0bd 212d 00be
00000340: 4e2e 973d 20ac d73c 3987 8bbe b7d0 c2be
00000350: 923b ac3d a4ae a63d ea55 0a3c 633e 403d
00000360: 5431 753e 88c9 c83b 0132 313e 4af0 55bc
00000370: dbd0 d33c 0916 8a3d a618 503c 20dc a3ba
00000380: bfd5 88be 8f3b aa3d df88 a0be 1fba 2d3e
00000390: 10d8 a0bd 15ee 2e3d 0aec 40bd a91c fd3d
000003a0: e367 34bc d37e 9ebd f2ca 433d ca6f cf3d
000003b0: 78e4 8ebd cf5e 9b3d 8f9f 87bd ffed 28be
000003c0: 6a58 b93b 3c4b a33c f389 3ebe 61b7 0cbd
000003d0: f9fa d73d fb06 90be 6175 87be 0ccc 573d
000003e0: aa55 abbc 3925 32be 3e49 0e3e 7e2a e4bd
000003f0: ecac cd3d b363 04be eca5 a2bc 19c1 40bd
0.13735908 0.028864812 -0.10922248 -0.037819274 -0.082190424 -0.026031077 -0.04983654 0.029938338
0.11242388 0.06472853 -0.14173414 -0.11662685 0.09702901 -0.06402702 -0.0658988 0.115146175
-0.55180055 0.0408931 -0.004617786 0.105529666 -0.07622387 0.0076713813 -0.0086376835 0.037834346
0.17479388 0.01959744 0.106604315 -0.03628993 -0.10001782 0.08819075 -0.0048198057 -0.07154313
0.13821925 -0.3454484 0.4682866 -0.025719156 -0.022219673 -0.22205363 -0.0042828466 -0.20983014
0.09605111 -0.076042734 0.014448054 -0.10247664 0.06272536 0.1509464 -0.075525716 0.1653139
0.008160629 -0.12121067 -0.07404795 0.04502789 -0.059007447 -0.03147674 -0.24015139 -0.09267508
0.0600304 0.054603584 -0.15950242 0.040475722 0.15063566 0.049013775 0.15672027 0.08120127
-0.1614857 -0.05772015 0.07701233 0.10333887 -0.03006934 0.09129139 -0.18308195 -0.05855635
-0.09184308 -0.123692214 -0.02270684 0.054678805 0.1286955 0.033850357 0.15861581 -0.22403929
-0.06109046 -0.016483903 0.16913047 -0.20396547 0.08826008 0.16908655 -0.13136955 -0.102257356
-0.027759094 -0.13022926 0.060694247 -0.14768673 0.15973043 -0.1819508 -0.12509634 -0.15322453
-0.14438711 0.2136832 0.07866108 0.038709365 -0.010586029 -0.15260676 0.17956588 -0.04397025
-0.051964782 0.07500429 0.11101581 0.006254583 -0.1188078 -0.12685324 -0.067623086 -0.15130223
0.037310056 -0.14884187 0.17479885 0.06339459 -0.021669513 -0.027105857 -0.009200322 -0.09512321
-0.20027684 -0.15250064 -0.049769238 0.1195381 0.018691313 0.031125467 0.0044156834 -0.048468728
0.17308557 -0.010179344 -0.23785321 0.12316067 0.023307132 0.10803651 0.3014751 0.04477596
0.11309973 -0.1273639 -0.018881269 -0.0795666 0.15379429 -0.03683061 -0.021276224 -0.02098312
-0.11933766 -0.13971177 0.11014727 -0.13588038 0.1719873 -0.07091486 0.008289613 0.07025839
-0.25929016 -0.037699636 -0.18020381 -0.08551938 0.04977235 -0.18320198 -0.003077952 0.21918966
-0.03770324 -0.2765074 -0.012951892 0.11049076 -0.037992317 0.04601273 0.027006365 -0.03309095
-0.1986069 0.04529067 -0.15889628 -0.12419852 0.13699472 -0.11052066 -0.12414084 0.12463836
0.18088277 -0.26010478 -0.19852681 0.10010894 0.10264682 -0.24550815 -0.0025904858 0.10265006
0.039535873 0.09391384 -0.041552257 -0.009279438 -0.1324225 -0.20231055 0.24559619 -0.06958266
0.033269927 0.042358816 0.051882453 -0.0689652 -0.020487493 0.20591974 0.19063129 0.1407316
-0.15097722 0.003415958 0.055577673 -0.10127487 -0.109411046 -0.17910661 -0.078171514 -0.12517215
0.07381879 0.026327193 -0.27251604 -0.38049862 0.084098 0.08138779 0.008443335 0.046934497
0.23944598 0.00612754 0.17304231 -0.013057778 0.025856426 0.06742484 0.012701189 -0.0012501515
-0.26725575 0.08312141 -0.31354424 0.16965531 -0.07853711 0.04270752 -0.047100104 0.12358982
-0.011011097 -0.077390336 0.047800966 0.10128744 -0.06977171 0.07586443 -0.0662223 -0.16497038
0.0056562917 0.019933335 -0.18607311 -0.03435457 0.10545916 -0.28130326 -0.2645674 0.05268483
-0.020914871 -0.17397012 0.13895127 -0.11140917 0.10042748 -0.12928657 -0.019854508 -0.047059152

bias f4 [128]
00000000: 4030 e33d ee3a 393d 9eb3 23bc ed9e b73c
00000010: df0a 0b3c da61 273d c4f4 823d 3c74 3abd
00000020: c927 8c3d f70a 473c e587 973b dc92 a93b
00000030: 5144 1abd 53a4 853c ace1 253c 51d3 413d
00000040: 83aa 9d3d 2d08 823d d301 c83c 2402 bd3c
00000050: fe30 ca3c b0f4 d5bc 22ec abbc 3fc7 7d3d
00000060: d72a 8d3c 9dfd dd3c 26b8 1c3c d30b 24bb
00000070: 9eb8 1cbd cb99 8b3d 2289 e53d 14f4 a83c
00000080: 9156 793b 18de bf3c a36c 663c eb7a e23c
00000090: 6f57 4c3d 024d 903c 17ca 433d 5d5e a33d
000000a0: 70ae 603d 50ec 293d d6f7 133d 0da5 593d
000000b0: b047 bb38 c354 c83c 421b 903d 326b a53d
000000c0: 060c 5f3d 190d 4ebd c789 9d3c a519 63bb
000000d0: e5bb 63bd db7f 673d ff64 543d f118 933c
000000e0: 0294 5b3d d963 2bbc 4dc7 133d 5ca4 b53c
000000f0: c9ff 9f3c 8ca4 8b3d 5511 a73c 34e3 383d
00000100: f1f3 423d b3b7 ddbb 1627 193c 745f 1d3d
00000110: d684 a53d 2058 8aba 8616 823d 7d86 02bb
00000120: d684 2e3d 5b7c bbbc e382 3c3d 8776 df3c
00000130: 8150 f83c 0236 9e3d ed9a bf3d e312 8f3b
00000140: 782c c43d e66f 70bb 4e91 adbc 3b08 fc3b
00000150: 4d8a bc3c 5dfc 043c abda 4b3d b4ca 08bd
00000160: 7dd5 5a3c 438d 963c 2dd1 193d 1e4f 573d
00000170: 2e8c 9d3c e84f b23c 26e1 d33c 3586 f33b
00000180: a800 d5bb e420 83bd 2d70 10bd 0a14 9f3d
00000190: 1dbf 9abc 2b2a 853d 232a 203c 9815 903d
000001a0: f42d a13d 13a9 f73d a433 533c 5efe 5bbc
000001b0: f577 993d 16e9 ffbb fee0 b83d 4764 583d
000001c0: 948f a13c d909 003d 8dcd 403c a64a bc3d
000001d0: 3ab1 5f3c 313e fa3c 93cc 633d f59b a33b
000001e0: 47c2 c53d 9b3e b93d 0686 e0bc 3cf2 233c
000001f0: 9376 ba3d 152e 7d3d 740d 9c3c bcce 463d
0.11093187 0.045222215 -0.009991555 0.022414649 0.008486479 0.040864803 0.063943416 -0.045521006
0.06843526 0.01214861 0.004624354 0.0051749777 -0.037662808 0.016313707 0.010124605 0.047320668
0.07698538 0.06349216 0.024414932 0.02307231 0.024681564 -0.026117653 -0.02098662 0.061957594
0.017232342 0.027098471 0.009565389 -0.0025031462 -0.038262002 0.06816443 0.11207797 0.020624198
0.0038045982 0.023421332 0.014063987 0.027646502 0.04988807 0.017614845 0.04780015 0.07976983
0.054853857 0.04148513 0.036125027 0.05313592 8.930208e-05 0.02445448 0.07036449 0.080770865
0.054454826 -0.05030546 0.019230736 -0.0034652737 -0.055599112 0.056518417 0.05185413 0.017956229
0.053607948 -0.010460817 0.03607874 0.0221731 0.019531148 0.06818494 0.020394007 0.045138553
0.047595922 -0.0067662834 0.009347698 0.03842111 0.08081977 -0.0010554828 0.06351952 -0.0019916587
0.04260715 -0.022886446 0.04602326 0.027278198 0.030311825 0.07725145 0.093557216 0.004366265
0.09578794 -0.003668779 -0.02118745 0.007691411 0.023015166 0.008116809 0.049769085 -0.033396438
0.013356564 0.018377906 0.037553 0.052565686 0.019231882 0.021766618 0.025864195 0.00743177
-0.0065003224 -0.06402758 -0.03526323 0.07767494 -0.018889958 0.065021835 0.009775671 0.07035369
0.07870093 0.12092795 0.01289073 -0.013427345 0.07493583 -0.0078097684 0.09027289 0.052830007
0.019721784 0.03125939 0.011767757 0.091939256 0.013653094 0.030547233 0.05561502 0.0049929568
0.09656196 0.09045144 -0.027407657 0.010006484 0.091046475 0.061811525 0.019049384 0.048537

weight f4 [7, 256]
00000000: 93f2 943e 91de cd3c b6a7 373c 7fcc 5abb
00000010: 7f8a 493e 2e24 553e f625 4b3e 4556 4dbc
00000020: 6f19 2ebe 2303 c0be 2798 483e ef4a 573e
00000030: 57b0 3d3e 32fd a3be 916d 67bc 98a9 b33e
00000040: 7801 eebe 02c1 633a 3522 5fbd 2a40 c2be
00000050: 5e1b 09bd a2e5 633e 2c8e 82bd 9d23 5e3e
00000060: 4b7c 853e bebb 643e 17a7 653e 8e90 6cbe
00000070: 5392 adbe 6bf2 4b3e 0397 bbbe 399f 963e
00000080: 82d3 ad3e 60f8 76be 65b4 7fbe b9e4 79be
00000090: e825 1bbd 551b a6be 6643 953e 6679 c63d
000000a0: 1cc8 f3bd 5c36 1f3e 1a4a f1be 394a 6fbd
000000b0: 1233 493e 80e8 a6be 1f4c c4be b4d5 7d3e
000000c0: 30e0 8cbe d24c 0bbd 9d52 283e f658 c73d
000000d0: fe5d 80bd c365 4c3e 88c0 c1be e647 d03e
000000e0: 7121 10bd 2b98 04be fb52 b83d 928e d3be
000000f0: ec5f 8bbe 3a9e 7bbe 2146 7dbe aa0e adbe
00000100: 8701 cd3e d2fa b6be 7723 803e a2e8 60bd
00000110: 354b 843e 60ac 573e cf8f d43d d48e 34be
00000120: 10b8 303e 043f c5be a9be 5e3e fc3e 803e
00000130: b5eb 063e 19c9 70bd 7284 c239 5c08 973e
00000140: cd75 95be ac98 683e 1174 5bbe 1917 873a
00000150: 06b1 f3bc 1def cabe 1435 a73e fee1 b83d
00000160: 0af4 5b3e ea96 24bc 5085 44be af46 0dbd
00000170: c160 c93d 21c8 bebe 068d 863e f27b c4be
00000180: 90f5 8dbe ba4f 5f3e 3bb7 a1be d10b 823e
00000190: e9d3 3e3e 1708 663e 4c28 b3bd ba36 8b3c
000001a0: 4ad5 a83e 7f06 133d 135a e6bc c7df 643e
000001b0: a9c0 ce3d c1ad b73c 17a5 a83e ccea 6fbe
000001c0: 9088 383d 3ecc f5be 3a26 c0bc 1ec1 ff3c
000001d0: 1e3f 443e b02f a73e 1cca 413e 205b 9ebe
000001e0: 8a8a 22bd a1c5 953e ae54 2abc 885b 3bbe
000001f0: b267 a63e e9e2 d4be 6510 39be 749c 92bd
00000200: 95d4 f9bd 291d 313e 7e94 7f3d 9a09 96be
00000210: c0b0 4a3d 9cbc 9b3d a1f2 5cbd 222d 713b
00000220: 402f 803c 85ea a1be 28d3 aabd d0ec cabd
00000230: 7067 86bc df66 363e 380f 70bd 3eff 92be
00000240: 2653 3c3e 2164 c7be ab39 f3bd 4149 b93d
00000250: 44a2 c8be 29aa b2be 1a17 53be 2ce4 a3be
00000260: 129e b4bd 72ee bebe d3fd 483e 5b23 433c
00000270: 2df8 1abd 8e9e 6cbe d415 0cbe cf34 873e
00000280: a583 513b 253b 9dbe bf13 9638 c1e4 4bbe
00000290: 5743 353e 5e5b 293e 5681 0b3e 3723 3d3e
000002a0: c0cb 8ebe b987 a53d 3a1e 18be a60b 5c3e
000002b0: 9a2b 283e 6f6c 903e 619b 313e 5b03 863e
000002c0: ff12 8cbe 72cd a43c 5d8f 97be e61a a7bd
000002d0: 4b8e 893e 279a b6bd f9f0 98be 3289 dc3a
000002e0: 170e 62be f87d afbc 7580 b6bc e36d 7f3e
000002f0: 12ee 2a3d 7687 803e 967b 913d d6c2 8cbe
00000300: 2524 bcbe 2568 7abe 6c53 3d3e 10ae ea3d
00000310: b386 86be f503 b4be 18e2 933b 5176 b3be
00000320: d84f babe 5d6b aabe 4a2c 7d3d 243f a6bd
00000330: 197c 023d 6b86 b03d e792 8abe 8eaa 273d
00000340: 942b b3be 88d5 83be a541 cabe f483 213e
00000350: 3f73 623d 6b4a 32be 7c70 15bd d06a e0bc
00000360: 311f d23d 738d 7dbe ded6 093e 02c9 b63e
00000370: a0a5 e13c fdab a33e 1d53 8dbe b2e6 64be
00000380: 970c 8ebe 787d ec3d ae18 f53d 8a05 c33b
00000390: f9c9 82be aafa b8be ca37 4f3e 40d2 473e
000003a0: 14c5 013e 143c d1bb f9f3 163e 465f 6e3e
000003b0: 7d22 36be dfca 90be 6126 1f3d 5f34 84be
000003c0: 60eb 31be 4767 343d 2803 83be e2c9 9b3e
000003d0: 0b45 93be 4d68 31be 4aa3 49bd daaa 74be
000003e0: 63fe 033e cda7 02be 4b77 d8bd 6e54 9a3d
000003f0: 9ad8 b43c c07e 083e 9af2 8abe a492 c5be
0.2909132 0.025130542 0.011209419 -0.003338605 0.19681738 0.20814583 0.198387 -0.012532775
-0.1700189 -0.37502393 0.19589292 0.21024679 0.185243 -0.3202911 -0.014125244 0.35090327
-0.46485496 0.0008688123 -0.05447598 -0.37939578 -0.033473365 0.22255567 -0.063747734 0.21693273
0.2607139 0.22337243 0.22427021 -0.23102018 -0.339007 0.19916694 -0.3663865 0.29418352
0.3395043 -0.24118185 -0.24971159 -0.24403657 -0.037877947 -0.32442728 0.29152983 0.09691124
-0.11903402 0.1554808 -0.47126848 -0.058420394 0.19648388 -0.32599258 -0.38339326 0.24788553
-0.2751479 -0.03400881 0.16437764 0.09733765 -0.062679276 0.19960694 -0.37842202 0.40679854
-0.035188142 -0.12948672 0.09000202 -0.4131971 -0.2722162 -0.24572077 -0.24733783 -0.3380025
0.40040228 -0.35738236 0.25027058 -0.054909356 0.25838628 0.2106185 0.10378992 -0.1763261
0.17257714 -0.3852464 0.21752419 0.25048053 0.13175853 -0.05878553 0.00037101243 0.29498565
-0.29191437 0.2271449 -0.21430995 0.0010306566 -0.029747497 -0.39635554 0.32657683 0.090274796
0.21479812 -0.010045746 -0.1919148 -0.034491237 0.098329075 -0.3726206 0.26279467 -0.38375813
-0.27726412 0.21807757 -0.31585106 0.2539964 0.18635525 0.22464024 -0.087479204 0.01699387
0.32975227 0.035894867 -0.028119123 0.2235099 0.10095341 0.02242172 0.32938454 -0.23429412
0.04505211 -0.48007387 -0.023455728 0.031220015 0.19164702 0.3265357 0.18924755 -0.30928898
-0.039682902 0.2925234 -0.010396166 -0.18296635 0.32500988 -0.4157937 -0.1807266 -0.07158747
-0.1219875 0.1729628 0.062397473 -0.293042 0.04948497 0.07604334 -0.053942326 0.0036800583
0.01564753 -0.31624237 -0.08341056 -0.0990845 -0.016406745 0.1781268 -0.058608264 -0.2871036
0.18391094 -0.3894358 -0.11876234 0.09047175 -0.391863 -0.34895447 -0.20614281 -0.3201002
-0.08819212 -0.37291294 0.19628076 0.011910285 -0.037834335 -0.23107359 -0.13680202 0.26407477
0.0031969335 -0.30709186 7.1562354e-05 -0.19911481 0.1770147 0.1653876 0.13623556 0.18470465
-0.27889824 0.08082528 -0.1485528 0.21488819 0.16422883 0.28207728 0.17344429 0.26174435
-0.27358243 0.020117495 -0.29601565 -0.08159427 0.26866373 -0.08916121 -0.29871348 0.0016825555
-0.22075687 -0.021422371 -0.02227805 0.24944262 0.041730948 0.25103348 0.0710365 -0.27492398
-0.36746326 -0.2445379 0.18488854 0.11458981 -0.26274642 -0.3515927 0.0045130365 -0.35051206
-0.3638904 -0.33285037 0.061809815 -0.08117512 0.03185663 0.08619388 -0.27065203 0.040934138
-0.34994185 -0.2574885 -0.39503208 0.15772992 0.05528569 -0.174112 -0.036484227 -0.027394682
0.102598555 -0.2476099 0.13460872 0.35700232 0.027544796 0.31967154 -0.27602473 -0.22353628
-0.2774398 0.11547369 0.11967598 0.005951588 -0.25544718 -0.36128742 0.20236126 0.19513798
0.12672836 -0.0063853357 0.14741506 0.23278531 -0.17786594 -0.28279778 0.03885496 -0.25821206
-0.17374945 0.044043805 -0.25588346 0.30427462 -0.28763613 -0.17324944 -0.04922799 -0.238933
0.1289001 -0.12759323 -0.10569628 0.07535635 0.02207594 0.13329601 -0.27138215 -0.3858844

bias f4 [7]
00000000: d2ff e3bc e840 efbc 6aea c13b 9bbd 323d
00000010: 906b b23d 9e0d 17bc f269 0cbc
-0.027831946 -0.029205754 0.005917837 0.043637853 0.08711922 -0.009219555 -0.008570181
